ViT(
  (positional_embedding): PositionalEmbedding2d()
  (encoder_blocks): Sequential(
    (0): TransformerEncoderBlock(
      (norm1): LayerNorm((28,), eps=1e-05, elementwise_affine=True)
      (norm2): LayerNorm((28,), eps=1e-05, elementwise_affine=True)
      (msa): MultiHeadSelfAttention(
        (lin_k): Linear(in_features=28, out_features=28, bias=True)
        (lin_q): Linear(in_features=28, out_features=28, bias=True)
        (lin_v): Linear(in_features=28, out_features=28, bias=True)
      )
      (MLP): MLP(
        (layers): ModuleList(
          (0): Linear(in_features=28, out_features=28, bias=True)
          (1): Linear(in_features=28, out_features=28, bias=True)
        )
      )
    )
    (1): TransformerEncoderBlock(
      (norm1): LayerNorm((28,), eps=1e-05, elementwise_affine=True)
      (norm2): LayerNorm((28,), eps=1e-05, elementwise_affine=True)
      (msa): MultiHeadSelfAttention(
        (lin_k): Linear(in_features=28, out_features=28, bias=True)
        (lin_q): Linear(in_features=28, out_features=28, bias=True)
        (lin_v): Linear(in_features=28, out_features=28, bias=True)
      )
      (MLP): MLP(
        (layers): ModuleList(
          (0): Linear(in_features=28, out_features=28, bias=True)
          (1): Linear(in_features=28, out_features=28, bias=True)
        )
      )
    )
    (2): TransformerEncoderBlock(
      (norm1): LayerNorm((28,), eps=1e-05, elementwise_affine=True)
      (norm2): LayerNorm((28,), eps=1e-05, elementwise_affine=True)
      (msa): MultiHeadSelfAttention(
        (lin_k): Linear(in_features=28, out_features=28, bias=True)
        (lin_q): Linear(in_features=28, out_features=28, bias=True)
        (lin_v): Linear(in_features=28, out_features=28, bias=True)
      )
      (MLP): MLP(
        (layers): ModuleList(
          (0): Linear(in_features=28, out_features=28, bias=True)
          (1): Linear(in_features=28, out_features=28, bias=True)
        )
      )
    )
    (3): TransformerEncoderBlock(
      (norm1): LayerNorm((28,), eps=1e-05, elementwise_affine=True)
      (norm2): LayerNorm((28,), eps=1e-05, elementwise_affine=True)
      (msa): MultiHeadSelfAttention(
        (lin_k): Linear(in_features=28, out_features=28, bias=True)
        (lin_q): Linear(in_features=28, out_features=28, bias=True)
        (lin_v): Linear(in_features=28, out_features=28, bias=True)
      )
      (MLP): MLP(
        (layers): ModuleList(
          (0): Linear(in_features=28, out_features=28, bias=True)
          (1): Linear(in_features=28, out_features=28, bias=True)
        )
      )
    )
  )
  (final_mlp): MLP(
    (layers): ModuleList(
      (0): Linear(in_features=28, out_features=10, bias=True)
    )
  )
)
patches_train.shape: (60000, 49, 16)
 36%|███████████████████████████████████████████████████████████████▎                                                                                                                | 36/100 [00:01<00:02, 26.53it/s]
loss: [100]: 229.77926635742188
Valition (on train):
100%|███████████████████████████████████████████████████████████████████████████████████████████████████████████████████████████████████████████████████████████████████████████████| 100/100 [00:03<00:00, 31.75it/s]
…
