ViT(
  (positional_embedding): PositionalEmbedding2d()
  (encoder_blocks): Sequential(
    (0): TransformerEncoderBlock(
      (norm1): LayerNorm((28,), eps=1e-05, elementwise_affine=True)
      (norm2): LayerNorm((28,), eps=1e-05, elementwise_affine=True)
      (msa): MultiHeadSelfAttention(
        (lin_k): Linear(in_features=28, out_features=28, bias=True)
        (lin_q): Linear(in_features=28, out_features=28, bias=True)
        (lin_v): Linear(in_features=28, out_features=28, bias=True)
      )
      (MLP): MLP(
        (layers): ModuleList(
          (0): Linear(in_features=28, out_features=28, bias=True)
          (1): Linear(in_features=28, out_features=28, bias=True)
        )
      )
    )
    (1): TransformerEncoderBlock(
      (norm1): LayerNorm((28,), eps=1e-05, elementwise_affine=True)
      (norm2): LayerNorm((28,), eps=1e-05, elementwise_affine=True)
      (msa): MultiHeadSelfAttention(
        (lin_k): Linear(in_features=28, out_features=28, bias=True)
        (lin_q): Linear(in_features=28, out_features=28, bias=True)
        (lin_v): Linear(in_features=28, out_features=28, bias=True)
      )
      (MLP): MLP(
        (layers): ModuleList(
          (0): Linear(in_features=28, out_features=28, bias=True)
          (1): Linear(in_features=28, out_features=28, bias=True)
        )
      )
    )
  )
  (final_mlp): MLP(
    (layers): ModuleList(
      (0): Linear(in_features=28, out_features=10, bias=True)
    )
  )
)
patches_train.shape: (60000, 49, 16)
learning rate: 0.019047619047619046
final_mlp.layers.0.weight
tensor([[ … )
final_mlp.layers.0.bias
tensor([ 9.4862e-03,  0.0000e+00,  0.0000e+00,  1.4435e-08,  0.0000e+00,
        -9.3132e-09, -1.2573e-08,  1.8626e-09,  1.1874e-08,  0.0000e+00])
loss: [1]: 230.25717163085938
Valition (on train):
5 -> [0]
0 -> [0]
…
