ViT(
  (positional_embedding): PositionalEmbedding2d()
  (encoder_blocks): Sequential(
    (0): TransformerEncoderBlock(
      (norm1): LayerNorm((28,), eps=1e-05, elementwise_affine=True)
      (norm2): LayerNorm((28,), eps=1e-05, elementwise_affine=True)
      (msa): MultiHeadSelfAttention(
        (lin_k): Linear(in_features=28, out_features=28, bias=True)
        (lin_q): Linear(in_features=28, out_features=28, bias=True)
        (lin_v): Linear(in_features=28, out_features=28, bias=True)
      )
      (MLP): MLP(
        (layers): ModuleList(
          (0): Linear(in_features=28, out_features=28, bias=True)
          (1): Linear(in_features=28, out_features=28, bias=True)
        )
      )
    )
    (1): TransformerEncoderBlock(
      (norm1): LayerNorm((28,), eps=1e-05, elementwise_affine=True)
      (norm2): LayerNorm((28,), eps=1e-05, elementwise_affine=True)
      (msa): MultiHeadSelfAttention(
        (lin_k): Linear(in_features=28, out_features=28, bias=True)
        (lin_q): Linear(in_features=28, out_features=28, bias=True)
        (lin_v): Linear(in_features=28, out_features=28, bias=True)
      )
      (MLP): MLP(
        (layers): ModuleList(
          (0): Linear(in_features=28, out_features=28, bias=True)
          (1): Linear(in_features=28, out_features=28, bias=True)
        )
      )
    )
  )
  (final_mlp): MLP(
    (layers): ModuleList(
      (0): Linear(in_features=28, out_features=10, bias=True)
    )
  )
)
patches_train.shape: (60000, 49, 16)
learning rate: 0.019047619047619046
[grad] final_mlp.layers.0.weight
tensor([[… )
[grad] final_mlp.layers.0.bias
tensor([-9.3132e-09, -9.3132e-10,  7.4506e-09, -9.3132e-10, -1.8626e-09,
         5.5879e-09,  2.7940e-09,  2.7940e-09,  2.5611e-09,  1.3970e-09])
loss: [1]: 230.2568817138672
Valition (on train):
…
