ViT(
  (positional_embedding): PositionalEmbedding2d()
  (encoder_blocks): Sequential(
    (0): TransformerEncoderBlock(
      (norm1): LayerNorm((28,), eps=1e-05, elementwise_affine=True)
      (norm2): LayerNorm((28,), eps=1e-05, elementwise_affine=True)
      (msa): MultiHeadSelfAttention(
        (lin_k): Linear(in_features=28, out_features=28, bias=True)
        (lin_q): Linear(in_features=28, out_features=28, bias=True)
        (lin_v): Linear(in_features=28, out_features=28, bias=True)
      )
      (MLP): MLP(
        (layers): ModuleList(
          (0): Linear(in_features=28, out_features=28, bias=True)
          (1): Linear(in_features=28, out_features=28, bias=True)
        )
      )
    )
    (1): TransformerEncoderBlock(
      (norm1): LayerNorm((28,), eps=1e-05, elementwise_affine=True)
      (norm2): LayerNorm((28,), eps=1e-05, elementwise_affine=True)
      (msa): MultiHeadSelfAttention(
        (lin_k): Linear(in_features=28, out_features=28, bias=True)
        (lin_q): Linear(in_features=28, out_features=28, bias=True)
        (lin_v): Linear(in_features=28, out_features=28, bias=True)
      )
      (MLP): MLP(
        (layers): ModuleList(
          (0): Linear(in_features=28, out_features=28, bias=True)
          (1): Linear(in_features=28, out_features=28, bias=True)
        )
      )
    )
    (2): TransformerEncoderBlock(
      (norm1): LayerNorm((28,), eps=1e-05, elementwise_affine=True)
      (norm2): LayerNorm((28,), eps=1e-05, elementwise_affine=True)
      (msa): MultiHeadSelfAttention(
        (lin_k): Linear(in_features=28, out_features=28, bias=True)
        (lin_q): Linear(in_features=28, out_features=28, bias=True)
        (lin_v): Linear(in_features=28, out_features=28, bias=True)
      )
      (MLP): MLP(
        (layers): ModuleList(
          (0): Linear(in_features=28, out_features=28, bias=True)
          (1): Linear(in_features=28, out_features=28, bias=True)
        )
      )
    )
    (3): TransformerEncoderBlock(
      (norm1): LayerNorm((28,), eps=1e-05, elementwise_affine=True)
      (norm2): LayerNorm((28,), eps=1e-05, elementwise_affine=True)
      (msa): MultiHeadSelfAttention(
        (lin_k): Linear(in_features=28, out_features=28, bias=True)
        (lin_q): Linear(in_features=28, out_features=28, bias=True)
        (lin_v): Linear(in_features=28, out_features=28, bias=True)
      )
      (MLP): MLP(
        (layers): ModuleList(
          (0): Linear(in_features=28, out_features=28, bias=True)
          (1): Linear(in_features=28, out_features=28, bias=True)
        )
      )
    )
  )
  (final_mlp): MLP(
    (layers): ModuleList(
      (0): Linear(in_features=28, out_features=10, bias=True)
    )
  )
)
patches_train.shape: (60000, 49, 16)
Traceback (most recent call last):
  File "/Users/tdeegan/dev/transformers/main.py", line 117, in <module>
    scheduler = torch.optim.lr_scheduler.ReduceLROnPlateau(optimizer, factor=0.9, mode='auto', verbose=True)
  File "/Users/tdeegan/Library/Python/3.10/lib/python/site-packages/torch/optim/lr_scheduler.py", line 990, in __init__
…
