ViT(
  (positional_embedding): PositionalEmbedding2d()
  (encoder_blocks): Sequential(
    (0): TransformerEncoderBlock(
      (norm1): LayerNorm((28,), eps=1e-05, elementwise_affine=True)
      (norm2): LayerNorm((28,), eps=1e-05, elementwise_affine=True)
      (msa): MultiHeadSelfAttention(
        (lin_k): Linear(in_features=28, out_features=28, bias=True)
        (lin_q): Linear(in_features=28, out_features=28, bias=True)
        (lin_v): Linear(in_features=28, out_features=28, bias=True)
      )
      (MLP): MLP(
        (layers): ModuleList(
          (0): Linear(in_features=28, out_features=28, bias=True)
          (1): Linear(in_features=28, out_features=28, bias=True)
        )
      )
    )
    (1): TransformerEncoderBlock(
      (norm1): LayerNorm((28,), eps=1e-05, elementwise_affine=True)
      (norm2): LayerNorm((28,), eps=1e-05, elementwise_affine=True)
      (msa): MultiHeadSelfAttention(
        (lin_k): Linear(in_features=28, out_features=28, bias=True)
        (lin_q): Linear(in_features=28, out_features=28, bias=True)
        (lin_v): Linear(in_features=28, out_features=28, bias=True)
      )
      (MLP): MLP(
        (layers): ModuleList(
          (0): Linear(in_features=28, out_features=28, bias=True)
          (1): Linear(in_features=28, out_features=28, bias=True)
        )
      )
    )
    (2): TransformerEncoderBlock(
      (norm1): LayerNorm((28,), eps=1e-05, elementwise_affine=True)
      (norm2): LayerNorm((28,), eps=1e-05, elementwise_affine=True)
      (msa): MultiHeadSelfAttention(
        (lin_k): Linear(in_features=28, out_features=28, bias=True)
        (lin_q): Linear(in_features=28, out_features=28, bias=True)
        (lin_v): Linear(in_features=28, out_features=28, bias=True)
      )
      (MLP): MLP(
        (layers): ModuleList(
          (0): Linear(in_features=28, out_features=28, bias=True)
          (1): Linear(in_features=28, out_features=28, bias=True)
        )
      )
    )
    (3): TransformerEncoderBlock(
      (norm1): LayerNorm((28,), eps=1e-05, elementwise_affine=True)
      (norm2): LayerNorm((28,), eps=1e-05, elementwise_affine=True)
      (msa): MultiHeadSelfAttention(
        (lin_k): Linear(in_features=28, out_features=28, bias=True)
        (lin_q): Linear(in_features=28, out_features=28, bias=True)
        (lin_v): Linear(in_features=28, out_features=28, bias=True)
      )
      (MLP): MLP(
        (layers): ModuleList(
          (0): Linear(in_features=28, out_features=28, bias=True)
          (1): Linear(in_features=28, out_features=28, bias=True)
        )
      )
    )
  )
  (final_mlp): MLP(
    (layers): ModuleList(
      (0): Linear(in_features=28, out_features=10, bias=True)
    )
  )
)
patches_train.shape: (60000, 49, 16)







 94%|█████████████████████████████████████████████████████████████████████████████████████████████████████████████████████████████████████████████████████████████████████          | 566/600 [00:15<00:01, 31.63it/s]
loss: [600]: 200.71241760253906
Valition (on train):
Valition (on test):
100%|███████████████████████████████████████████████████████████████████████████████████████████████████████████████████████████████████████████████████████████████████████████████| 600/600 [00:16<00:00, 36.30it/s]
…
